    environment variable.
  warnings.warn(imbalance_warn.format(device_ids[min_pos], device_ids[max_pos]))
AlexNet(
  (features): DataParallel(
    (module): Sequential(
      (0): Conv2d(3, 96, kernel_size=(11, 11), stride=(4, 4))
      (1): BatchNorm2d(96, eps=0.0001, momentum=0.1, affine=True, track_running_stats=True)
      (2): ReLU(inplace)
      (3): MaxPool2d(kernel_size=3, stride=2, padding=0, dilation=1, ceil_mode=False)
      (4): BinConv2d(
        (bn): BatchNorm2d(96, eps=0.0001, momentum=0.1, affine=True, track_running_stats=True)
        (conv): Conv2d(96, 256, kernel_size=(5, 5), stride=(1, 1), padding=(2, 2))
        (relu): ReLU(inplace)
      )
      (5): MaxPool2d(kernel_size=3, stride=2, padding=0, dilation=1, ceil_mode=False)
      (6): BinConv2d(
        (bn): BatchNorm2d(256, eps=0.0001, momentum=0.1, affine=True, track_running_stats=True)
        (conv): Conv2d(256, 384, kernel_size=(3, 3), stride=(1, 1), padding=(1, 1))
        (relu): ReLU(inplace)
      )
      (7): BinConv2d(
        (bn): BatchNorm2d(384, eps=0.0001, momentum=0.1, affine=True, track_running_stats=True)
        (conv): Conv2d(384, 384, kernel_size=(3, 3), stride=(1, 1), padding=(1, 1))
        (relu): ReLU(inplace)
      )
      (8): BinConv2d(
        (bn): BatchNorm2d(384, eps=0.0001, momentum=0.1, affine=True, track_running_stats=True)
        (conv): Conv2d(384, 256, kernel_size=(3, 3), stride=(1, 1), padding=(1, 1))
        (relu): ReLU(inplace)
      )
      (9): MaxPool2d(kernel_size=3, stride=2, padding=0, dilation=1, ceil_mode=False)
    )
  )
  (classifier): Sequential(
    (0): BinConv2d(
      (bn): BatchNorm1d(9216, eps=0.0001, momentum=0.1, affine=True, track_running_stats=True)
      (linear): Linear(in_features=9216, out_features=4096, bias=True)
      (relu): ReLU(inplace)
    )
    (1): BinConv2d(
      (dropout): Dropout(p=0.5)
      (bn): BatchNorm1d(4096, eps=0.0001, momentum=0.1, affine=True, track_running_stats=True)
      (linear): Linear(in_features=4096, out_features=4096, bias=True)
      (relu): ReLU(inplace)
    )
    (2): BatchNorm1d(4096, eps=0.001, momentum=0.1, affine=True, track_running_stats=True)
    (3): Dropout(p=0.5)
    (4): Linear(in_features=4096, out_features=1000, bias=True)
  )
)
Learning rate: 0.001
main.py:227: UserWarning: invalid index of a 0-dim tensor. This will be an error in PyTorch 0.5. Use tensor.item() to convert a 0-dim tensor to a Python number
  losses.update(loss.data[0], input.size(0))
Epoch: [0][0/2503]	Time 13.099 (13.099)	Data 1.088 (1.088)	Loss 6.9076 (6.9076)	Prec@1 0.000 (0.000)	Prec@5 0.781 (0.781)
…
